…
113/113 - 91s - loss: 0.7177 - accuracy: 0.7069 - val_loss: 1.9348 - val_accuracy: 0.4399 - 91s/epoch - 801ms/step
Epoch 99/100
113/113 - 87s - loss: 0.7250 - accuracy: 0.7029 - val_loss: 1.9259 - val_accuracy: 0.4391 - 87s/epoch - 772ms/step
Epoch 100/100
113/113 - 85s - loss: 0.7483 - accuracy: 0.6944 - val_loss: 1.9466 - val_accuracy: 0.4424 - 85s/epoch - 750ms/step
Model: "sequential_3"
_________________________________________________________________
 Layer (type)                Output Shape              Param #   
=================================================================
 masking_3 (Masking)         (None, 100, 13)           0         
                                                                 
 gru_3 (GRU)                 (None, 100, 100)          34500     
                                                                 
 dropout_2 (Dropout)         (None, 100, 100)          0         
                                                                 
 batch_normalization_2 (Batc  (None, 100, 100)         400       
 hNormalization)                                                 
                                                                 
 gru_4 (GRU)                 (None, 100)               60600     
                                                                 
 dropout_3 (Dropout)         (None, 100)               0         
                                                                 
 batch_normalization_3 (Batc  (None, 100)              400       
 hNormalization)                                                 
                                                                 
 dense_2 (Dense)             (None, 6)                 606       
                                                                 
=================================================================
Total params: 96,506
Trainable params: 96,106
Non-trainable params: 400
_________________________________________________________________
